2025-07-02 17:53:42,366 - NCSNpp(
  (act): SiLU()
  (all_modules): ModuleList(
    (0): GaussianFourierProjection()
    (1): Linear(in_features=128, out_features=256, bias=True)
    (2): Linear(in_features=256, out_features=256, bias=True)
    (3): Conv2d(1, 64, kernel_size=(3, 3), stride=(1, 1), padding=(1, 1))
    (4): ResnetBlockDDPMpp(
      (GroupNorm_0): GroupNorm(16, 64, eps=1e-06, affine=True)
      (Conv_0): Conv2d(64, 64, kernel_size=(3, 3), stride=(1, 1), padding=(1, 1))
      (Dense_0): Linear(in_features=256, out_features=64, bias=True)
      (GroupNorm_1): GroupNorm(16, 64, eps=1e-06, affine=True)
      (Dropout_0): Dropout(p=0.1, inplace=False)
      (Conv_1): Conv2d(64, 64, kernel_size=(3, 3), stride=(1, 1), padding=(1, 1))
      (act): SiLU()
    )
    (5): AttnBlockpp(
      (GroupNorm_0): GroupNorm(16, 64, eps=1e-06, affine=True)
      (NIN_0): NIN()
      (NIN_1): NIN()
      (NIN_2): NIN()
      (NIN_3): NIN()
    )
    (6): ResnetBlockDDPMpp(
      (GroupNorm_0): GroupNorm(16, 64, eps=1e-06, affine=True)
      (Conv_0): Conv2d(64, 64, kernel_size=(3, 3), stride=(1, 1), padding=(1, 1))
      (Dense_0): Linear(in_features=256, out_features=64, bias=True)
      (GroupNorm_1): GroupNorm(16, 64, eps=1e-06, affine=True)
      (Dropout_0): Dropout(p=0.1, inplace=False)
      (Conv_1): Conv2d(64, 64, kernel_size=(3, 3), stride=(1, 1), padding=(1, 1))
      (act): SiLU()
    )
    (7): AttnBlockpp(
      (GroupNorm_0): GroupNorm(16, 64, eps=1e-06, affine=True)
      (NIN_0): NIN()
      (NIN_1): NIN()
      (NIN_2): NIN()
      (NIN_3): NIN()
    )
    (8): Downsample(
      (Conv2d_0): Conv2d()
    )
    (9): ResnetBlockDDPMpp(
      (GroupNorm_0): GroupNorm(16, 64, eps=1e-06, affine=True)
      (Conv_0): Conv2d(64, 128, kernel_size=(3, 3), stride=(1, 1), padding=(1, 1))
      (Dense_0): Linear(in_features=256, out_features=128, bias=True)
      (GroupNorm_1): GroupNorm(32, 128, eps=1e-06, affine=True)
      (Dropout_0): Dropout(p=0.1, inplace=False)
      (Conv_1): Conv2d(128, 128, kernel_size=(3, 3), stride=(1, 1), padding=(1, 1))
      (NIN_0): NIN()
      (act): SiLU()
    )
    (10): ResnetBlockDDPMpp(
      (GroupNorm_0): GroupNorm(32, 128, eps=1e-06, affine=True)
      (Conv_0): Conv2d(128, 128, kernel_size=(3, 3), stride=(1, 1), padding=(1, 1))
      (Dense_0): Linear(in_features=256, out_features=128, bias=True)
      (GroupNorm_1): GroupNorm(32, 128, eps=1e-06, affine=True)
      (Dropout_0): Dropout(p=0.1, inplace=False)
      (Conv_1): Conv2d(128, 128, kernel_size=(3, 3), stride=(1, 1), padding=(1, 1))
      (act): SiLU()
    )
    (11): Downsample(
      (Conv2d_0): Conv2d()
    )
    (12-14): 3 x ResnetBlockDDPMpp(
      (GroupNorm_0): GroupNorm(32, 128, eps=1e-06, affine=True)
      (Conv_0): Conv2d(128, 128, kernel_size=(3, 3), stride=(1, 1), padding=(1, 1))
      (Dense_0): Linear(in_features=256, out_features=128, bias=True)
      (GroupNorm_1): GroupNorm(32, 128, eps=1e-06, affine=True)
      (Dropout_0): Dropout(p=0.1, inplace=False)
      (Conv_1): Conv2d(128, 128, kernel_size=(3, 3), stride=(1, 1), padding=(1, 1))
      (act): SiLU()
    )
    (15): AttnBlockpp(
      (GroupNorm_0): GroupNorm(32, 128, eps=1e-06, affine=True)
      (NIN_0): NIN()
      (NIN_1): NIN()
      (NIN_2): NIN()
      (NIN_3): NIN()
    )
    (16): ResnetBlockDDPMpp(
      (GroupNorm_0): GroupNorm(32, 128, eps=1e-06, affine=True)
      (Conv_0): Conv2d(128, 128, kernel_size=(3, 3), stride=(1, 1), padding=(1, 1))
      (Dense_0): Linear(in_features=256, out_features=128, bias=True)
      (GroupNorm_1): GroupNorm(32, 128, eps=1e-06, affine=True)
      (Dropout_0): Dropout(p=0.1, inplace=False)
      (Conv_1): Conv2d(128, 128, kernel_size=(3, 3), stride=(1, 1), padding=(1, 1))
      (act): SiLU()
    )
    (17-19): 3 x ResnetBlockDDPMpp(
      (GroupNorm_0): GroupNorm(32, 256, eps=1e-06, affine=True)
      (Conv_0): Conv2d(256, 128, kernel_size=(3, 3), stride=(1, 1), padding=(1, 1))
      (Dense_0): Linear(in_features=256, out_features=128, bias=True)
      (GroupNorm_1): GroupNorm(32, 128, eps=1e-06, affine=True)
      (Dropout_0): Dropout(p=0.1, inplace=False)
      (Conv_1): Conv2d(128, 128, kernel_size=(3, 3), stride=(1, 1), padding=(1, 1))
      (NIN_0): NIN()
      (act): SiLU()
    )
    (20): Upsample(
      (Conv2d_0): Conv2d()
    )
    (21-22): 2 x ResnetBlockDDPMpp(
      (GroupNorm_0): GroupNorm(32, 256, eps=1e-06, affine=True)
      (Conv_0): Conv2d(256, 128, kernel_size=(3, 3), stride=(1, 1), padding=(1, 1))
      (Dense_0): Linear(in_features=256, out_features=128, bias=True)
      (GroupNorm_1): GroupNorm(32, 128, eps=1e-06, affine=True)
      (Dropout_0): Dropout(p=0.1, inplace=False)
      (Conv_1): Conv2d(128, 128, kernel_size=(3, 3), stride=(1, 1), padding=(1, 1))
      (NIN_0): NIN()
      (act): SiLU()
    )
    (23): ResnetBlockDDPMpp(
      (GroupNorm_0): GroupNorm(32, 192, eps=1e-06, affine=True)
      (Conv_0): Conv2d(192, 128, kernel_size=(3, 3), stride=(1, 1), padding=(1, 1))
      (Dense_0): Linear(in_features=256, out_features=128, bias=True)
      (GroupNorm_1): GroupNorm(32, 128, eps=1e-06, affine=True)
      (Dropout_0): Dropout(p=0.1, inplace=False)
      (Conv_1): Conv2d(128, 128, kernel_size=(3, 3), stride=(1, 1), padding=(1, 1))
      (NIN_0): NIN()
      (act): SiLU()
    )
    (24): Upsample(
      (Conv2d_0): Conv2d()
    )
    (25): ResnetBlockDDPMpp(
      (GroupNorm_0): GroupNorm(32, 192, eps=1e-06, affine=True)
      (Conv_0): Conv2d(192, 64, kernel_size=(3, 3), stride=(1, 1), padding=(1, 1))
      (Dense_0): Linear(in_features=256, out_features=64, bias=True)
      (GroupNorm_1): GroupNorm(16, 64, eps=1e-06, affine=True)
      (Dropout_0): Dropout(p=0.1, inplace=False)
      (Conv_1): Conv2d(64, 64, kernel_size=(3, 3), stride=(1, 1), padding=(1, 1))
      (NIN_0): NIN()
      (act): SiLU()
    )
    (26-27): 2 x ResnetBlockDDPMpp(
      (GroupNorm_0): GroupNorm(32, 128, eps=1e-06, affine=True)
      (Conv_0): Conv2d(128, 64, kernel_size=(3, 3), stride=(1, 1), padding=(1, 1))
      (Dense_0): Linear(in_features=256, out_features=64, bias=True)
      (GroupNorm_1): GroupNorm(16, 64, eps=1e-06, affine=True)
      (Dropout_0): Dropout(p=0.1, inplace=False)
      (Conv_1): Conv2d(64, 64, kernel_size=(3, 3), stride=(1, 1), padding=(1, 1))
      (NIN_0): NIN()
      (act): SiLU()
    )
    (28): AttnBlockpp(
      (GroupNorm_0): GroupNorm(16, 64, eps=1e-06, affine=True)
      (NIN_0): NIN()
      (NIN_1): NIN()
      (NIN_2): NIN()
      (NIN_3): NIN()
    )
    (29): GroupNorm(16, 64, eps=1e-06, affine=True)
    (30): Conv2d(64, 1, kernel_size=(3, 3), stride=(1, 1), padding=(1, 1))
  )
)
2025-07-02 17:53:42,367 - EMA: <models.ema.ExponentialMovingAverage object at 0x16e05ea90>
2025-07-02 17:53:42,367 - Optimizer: Adam (
Parameter Group 0
    amsgrad: False
    betas: (0.9, 0.999)
    capturable: False
    differentiable: False
    eps: 1e-08
    foreach: None
    fused: None
    lr: 0.0002
    maximize: False
    weight_decay: 0
…
