2025-07-31 16:13:04,928 - Training run started at: 2025.07.31_161304
2025-07-31 16:13:04,928 - Run directory: Training Runs/2025.07.31_161304
2025-07-31 16:13:55,122 - NCSNpp(
  (act): SiLU()
  (time_embed): GaussianFourierProjection()
  (time_mlp): Sequential(
    (0): Linear(in_features=1024, out_features=2048, bias=True)
    (1): SiLU()
    (2): Linear(in_features=2048, out_features=2048, bias=True)
  )
  (label_emb): Linear(in_features=1, out_features=2048, bias=True)
  (input_conv): Conv2d(1, 512, kernel_size=(3, 3), stride=(1, 1), padding=(1, 1))
  (down_blocks): ModuleList(
    (0-3): 4 x ResnetBlockDDPMpp(
      (GroupNorm_0): GroupNorm(32, 512, eps=1e-06, affine=True)
      (Conv_0): Conv2d(512, 512, kernel_size=(3, 3), stride=(1, 1), padding=(1, 1))
      (Dense_0): Linear(in_features=2048, out_features=512, bias=True)
      (GroupNorm_1): GroupNorm(32, 512, eps=1e-06, affine=True)
      (Dropout_0): Dropout(p=0.5, inplace=False)
      (Conv_1): Conv2d(512, 512, kernel_size=(3, 3), stride=(1, 1), padding=(1, 1))
      (act): SiLU()
    )
    (4): ResnetBlockDDPMpp(
      (GroupNorm_0): GroupNorm(32, 512, eps=1e-06, affine=True)
      (Conv_0): Conv2d(512, 1024, kernel_size=(3, 3), stride=(1, 1), padding=(1, 1))
      (Dense_0): Linear(in_features=2048, out_features=1024, bias=True)
      (GroupNorm_1): GroupNorm(32, 1024, eps=1e-06, affine=True)
      (Dropout_0): Dropout(p=0.5, inplace=False)
      (Conv_1): Conv2d(1024, 1024, kernel_size=(3, 3), stride=(1, 1), padding=(1, 1))
      (NIN_0): NIN()
      (act): SiLU()
    )
    (5-7): 3 x ResnetBlockDDPMpp(
      (GroupNorm_0): GroupNorm(32, 1024, eps=1e-06, affine=True)
      (Conv_0): Conv2d(1024, 1024, kernel_size=(3, 3), stride=(1, 1), padding=(1, 1))
      (Dense_0): Linear(in_features=2048, out_features=1024, bias=True)
      (GroupNorm_1): GroupNorm(32, 1024, eps=1e-06, affine=True)
      (Dropout_0): Dropout(p=0.5, inplace=False)
      (Conv_1): Conv2d(1024, 1024, kernel_size=(3, 3), stride=(1, 1), padding=(1, 1))
      (act): SiLU()
    )
    (8): ResnetBlockDDPMpp(
      (GroupNorm_0): GroupNorm(32, 1024, eps=1e-06, affine=True)
      (Conv_0): Conv2d(1024, 2048, kernel_size=(3, 3), stride=(1, 1), padding=(1, 1))
      (Dense_0): Linear(in_features=2048, out_features=2048, bias=True)
      (GroupNorm_1): GroupNorm(32, 2048, eps=1e-06, affine=True)
      (Dropout_0): Dropout(p=0.5, inplace=False)
      (Conv_1): Conv2d(2048, 2048, kernel_size=(3, 3), stride=(1, 1), padding=(1, 1))
      (NIN_0): NIN()
      (act): SiLU()
    )
    (9-11): 3 x ResnetBlockDDPMpp(
      (GroupNorm_0): GroupNorm(32, 2048, eps=1e-06, affine=True)
      (Conv_0): Conv2d(2048, 2048, kernel_size=(3, 3), stride=(1, 1), padding=(1, 1))
      (Dense_0): Linear(in_features=2048, out_features=2048, bias=True)
      (GroupNorm_1): GroupNorm(32, 2048, eps=1e-06, affine=True)
      (Dropout_0): Dropout(p=0.5, inplace=False)
      (Conv_1): Conv2d(2048, 2048, kernel_size=(3, 3), stride=(1, 1), padding=(1, 1))
      (act): SiLU()
    )
  )
  (down_attn): ModuleList(
    (0-3): 4 x AttnBlockpp(
      (GroupNorm_0): GroupNorm(32, 512, eps=1e-06, affine=True)
      (NIN_0): NIN()
      (NIN_1): NIN()
      (NIN_2): NIN()
      (NIN_3): NIN()
    )
    (4-7): 4 x AttnBlockpp(
      (GroupNorm_0): GroupNorm(32, 1024, eps=1e-06, affine=True)
      (NIN_0): NIN()
      (NIN_1): NIN()
      (NIN_2): NIN()
      (NIN_3): NIN()
    )
    (8-11): 4 x None
  )
  (downsample): ModuleList(
    (0): Downsample(
      (Conv_0): Conv2d(512, 512, kernel_size=(3, 3), stride=(2, 2))
    )
    (1): Downsample(
      (Conv_0): Conv2d(1024, 1024, kernel_size=(3, 3), stride=(2, 2))
    )
    (2): None
  )
  (mid_block1): ResnetBlockDDPMpp(
    (GroupNorm_0): GroupNorm(32, 2048, eps=1e-06, affine=True)
    (Conv_0): Conv2d(2048, 2048, kernel_size=(3, 3), stride=(1, 1), padding=(1, 1))
    (Dense_0): Linear(in_features=2048, out_features=2048, bias=True)
    (GroupNorm_1): GroupNorm(32, 2048, eps=1e-06, affine=True)
    (Dropout_0): Dropout(p=0.5, inplace=False)
    (Conv_1): Conv2d(2048, 2048, kernel_size=(3, 3), stride=(1, 1), padding=(1, 1))
    (act): SiLU()
  )
  (mid_block2): ResnetBlockDDPMpp(
    (GroupNorm_0): GroupNorm(32, 2048, eps=1e-06, affine=True)
    (Conv_0): Conv2d(2048, 2048, kernel_size=(3, 3), stride=(1, 1), padding=(1, 1))
    (Dense_0): Linear(in_features=2048, out_features=2048, bias=True)
    (GroupNorm_1): GroupNorm(32, 2048, eps=1e-06, affine=True)
    (Dropout_0): Dropout(p=0.5, inplace=False)
    (Conv_1): Conv2d(2048, 2048, kernel_size=(3, 3), stride=(1, 1), padding=(1, 1))
    (act): SiLU()
  )
  (up_blocks): ModuleList(
    (0-4): 5 x ResnetBlockDDPMpp(
      (GroupNorm_0): GroupNorm(32, 4096, eps=1e-06, affine=True)
      (Conv_0): Conv2d(4096, 2048, kernel_size=(3, 3), stride=(1, 1), padding=(1, 1))
      (Dense_0): Linear(in_features=2048, out_features=2048, bias=True)
      (GroupNorm_1): GroupNorm(32, 2048, eps=1e-06, affine=True)
      (Dropout_0): Dropout(p=0.5, inplace=False)
      (Conv_1): Conv2d(2048, 2048, kernel_size=(3, 3), stride=(1, 1), padding=(1, 1))
      (NIN_0): NIN()
      (act): SiLU()
    )
    (5): ResnetBlockDDPMpp(
      (GroupNorm_0): GroupNorm(32, 3072, eps=1e-06, affine=True)
      (Conv_0): Conv2d(3072, 1024, kernel_size=(3, 3), stride=(1, 1), padding=(1, 1))
      (Dense_0): Linear(in_features=2048, out_features=1024, bias=True)
      (GroupNorm_1): GroupNorm(32, 1024, eps=1e-06, affine=True)
      (Dropout_0): Dropout(p=0.5, inplace=False)
      (Conv_1): Conv2d(1024, 1024, kernel_size=(3, 3), stride=(1, 1), padding=(1, 1))
      (NIN_0): NIN()
      (act): SiLU()
    )
    (6-9): 4 x ResnetBlockDDPMpp(
      (GroupNorm_0): GroupNorm(32, 2048, eps=1e-06, affine=True)
      (Conv_0): Conv2d(2048, 1024, kernel_size=(3, 3), stride=(1, 1), padding=(1, 1))
      (Dense_0): Linear(in_features=2048, out_features=1024, bias=True)
      (GroupNorm_1): GroupNorm(32, 1024, eps=1e-06, affine=True)
      (Dropout_0): Dropout(p=0.5, inplace=False)
      (Conv_1): Conv2d(1024, 1024, kernel_size=(3, 3), stride=(1, 1), padding=(1, 1))
      (NIN_0): NIN()
      (act): SiLU()
    )
    (10): ResnetBlockDDPMpp(
      (GroupNorm_0): GroupNorm(32, 1536, eps=1e-06, affine=True)
      (Conv_0): Conv2d(1536, 512, kernel_size=(3, 3), stride=(1, 1), padding=(1, 1))
      (Dense_0): Linear(in_features=2048, out_features=512, bias=True)
      (GroupNorm_1): GroupNorm(32, 512, eps=1e-06, affine=True)
      (Dropout_0): Dropout(p=0.5, inplace=False)
      (Conv_1): Conv2d(512, 512, kernel_size=(3, 3), stride=(1, 1), padding=(1, 1))
      (NIN_0): NIN()
      (act): SiLU()
    )
    (11-14): 4 x ResnetBlockDDPMpp(
      (GroupNorm_0): GroupNorm(32, 1024, eps=1e-06, affine=True)
      (Conv_0): Conv2d(1024, 512, kernel_size=(3, 3), stride=(1, 1), padding=(1, 1))
      (Dense_0): Linear(in_features=2048, out_features=512, bias=True)
      (GroupNorm_1): GroupNorm(32, 512, eps=1e-06, affine=True)
      (Dropout_0): Dropout(p=0.5, inplace=False)
      (Conv_1): Conv2d(512, 512, kernel_size=(3, 3), stride=(1, 1), padding=(1, 1))
      (NIN_0): NIN()
      (act): SiLU()
    )
  )
  (up_attn): ModuleList(
    (0-4): 5 x None
    (5-9): 5 x AttnBlockpp(
      (GroupNorm_0): GroupNorm(32, 1024, eps=1e-06, affine=True)
      (NIN_0): NIN()
      (NIN_1): NIN()
      (NIN_2): NIN()
      (NIN_3): NIN()
    )
    (10-14): 5 x AttnBlockpp(
      (GroupNorm_0): GroupNorm(32, 512, eps=1e-06, affine=True)
      (NIN_0): NIN()
      (NIN_1): NIN()
      (NIN_2): NIN()
      (NIN_3): NIN()
    )
  )
  (upsample): ModuleList(
    (0): Upsample(
      (Conv_0): Conv2d(2048, 2048, kernel_size=(3, 3), stride=(1, 1), padding=(1, 1))
    )
    (1): Upsample(
      (Conv_0): Conv2d(1024, 1024, kernel_size=(3, 3), stride=(1, 1), padding=(1, 1))
    )
    (2): None
  )
  (out_norm): GroupNorm(32, 512, eps=1e-06, affine=True)
  (out_act): SiLU()
  (out_conv): Conv2d(512, 1, kernel_size=(3, 3), stride=(1, 1), padding=(1, 1))
)
2025-07-31 16:13:55,125 - EMA: <models.ema.ExponentialMovingAverage object at 0x15127363dae0>
2025-07-31 16:13:55,125 - Optimizer: Adam (
Parameter Group 0
    amsgrad: False
    betas: (0.9, 0.999)
    capturable: False
    differentiable: False
    eps: 1e-08
    foreach: None
    fused: None
    lr: 0.00016
    maximize: False
    weight_decay: 0
…
